best_model.pth (torch, 556450 bytes, 9 tensors)

layers.0.weight f4 [200, 86]
00000000: 5182 563a d0d0 e23c 3ca9 bb3e 7447 16bf
00000010: 9654 d13d c076 173d e6a0 bf3d 3069 7a3c
00000020: 5332 8b3d 17a0 653e 79a3 c5be 399a bc3d
00000030: 7987 113e 713e ec3b 6079 b73b 9f66 653e
00000040: 5282 193d ac9a 59bd f370 6fbc 08e3 f03c
00000050: 7909 bfbd 8651 b53d 68ce b63c f19c 913d
00000060: c415 953d fef6 da3d 195a d1bc b372 0c3e
00000070: 3e9c b03b a4a2 a73d aee4 3b3e 4b9c 023e
00000080: db36 c1bd 1dc4 3cbe f761 0fbd a097 4e3d
00000090: 4008 42be 9db9 eabd 3636 d4bc 8b87 e3bb
000000a0: cea0 b6bd 0018 80bd 3826 983d 47ea debd
000000b0: 6686 17be 4990 ccbd 4e60 73be 18ec 463d
000000c0: aa2a 95be 08a2 c9be a6aa f2be 262a 1cbe
000000d0: 4eae 14be 323c b3bd b793 95be 9f20 05bf
000000e0: f40f d6be d355 8cbe 740f 293d 1b31 52be
000000f0: f7ef 48be 9073 cfbd 86db 813d ab8d 9bbd
00000100: b972 4b3c 0c4e 28bd d884 753e 5e20 c0bd
00000110: 8c66 ae3c f9fd 443d ea20 293e 18f5 d43d
00000120: 9948 273e 169d 043f a8f2 7abc 378a 1dbd
00000130: fb3d b03e 2434 553d 4912 2d3e b1a7 413e
00000140: cd5f ba3e e445 a43e 6903 a93e 60ca abbc
00000150: 1b0d 023e b9fc a53e 6b59 93bb 18c0 7dbd
00000160: 106a a13e 81db 8bbe e44f 2a3e 2414 a03d
00000170: 60cb bebd 203a 1b3b b487 e13d b675 343e
00000180: 1ee0 87be 6485 173e c339 c53d 09cf e53d
00000190: 7822 e0bc 1b88 c33d a833 fcbc 4005 80bd
000001a0: 5a5f 0c3e 90dd 8c3d 25ef 3bbe e219 9c3d
000001b0: a675 a0bd bfda 3a3e 6463 c83d 9e14 363e
000001c0: 38c1 0e3e aef0 3d3e 62c1 133e 3fc2 843b
000001d0: a899 8e3e 9f47 273e 9b25 19bd eb12 58be
000001e0: 54b4 a2bd 5ee4 afbd 8608 87bd b46b 2ebd
000001f0: 80a7 3abd 6d85 0c3d e8ff c0bd bf53 9fbd
00000200: 28ff 713d ddb3 a8bd a91e 4dbe 206d ee3c
00000210: ad16 c0bd 40fc feba 6e42 8ebe 001d 8ebe
00000220: 6538 d0be aec8 f9bd ed66 a2be f027 e83c
00000230: e1c3 4dbe 2ed4 f9be d9b1 b7be 9f72 84be
00000240: 3e12 b0bd d639 86be addc 74be bb6f c6bd
00000250: 881d 1a3d 4f4c 1abe 50ee 923d 4f24 bcbd
00000260: 1ffa 603e 502c 30be 4df9 083e 7e3b f43d
00000270: 729b 203e fed5 963d fcb1 8e3e fc4e f23e
00000280: 2782 97bc 1f66 49bd 4f12 983e e0d3 2f3c
00000290: 9dd5 0d3e 9100 1d3e 9d8e af3e 607a 2b3e
000002a0: 23ac c93e 076f 033e 1121 023e 9698 793e
000002b0: a02a 203d 6df2 44bd 8dc7 8c3d 96aa 0a3d
000002c0: 9243 a63d 30dc ce3d 6cb5 a8bc 40fc 373b
000002d0: f2df d1bd 3efa 5abd 90ba 003d f2b9 47bd
000002e0: e752 5b3e 6c07 683d 7831 a63c 0a32 f7bd
000002f0: bc94 ffbd cbab a43a 7645 b73d 8e2c 703d
00000300: 9c5d 1ebe 0c3a 8e3d e0fd 4fbb a81a 21be
00000310: 4cdc 8ebd f729 bebc 5777 92bc 67e0 ddbd
00000320: d54c 02bd 2f1c a63e 542e d7bd a3e4 31be
00000330: c3d9 0b3e e8af d83d 23b3 01be faf2 873d
00000340: c948 1cbd 21d1 a13d d7ae 1d3e 2bcc 7b3d
00000350: e890 6abc 0049 f2ba 50ad 27bc b9fa 773c
00000360: 5086 7fbd ae5a 97bd 47ad d13d cc28 babd
00000370: 41b0 c6bd 0c5e 43bd 3eb8 d5bd 07c9 9dbd
00000380: 19a6 d6bd c6ce d2bd a1bd 3bbe f163 fc3d
00000390: 4bfd 6bbd 3e2b 32be 5296 d83d cdd1 bcbd
000003a0: 11a9 2fbd 38ef b33c f8ee 62bc 3414 0d3e
000003b0: cc70 77bc d7f4 db3d e915 77bc 465a 0abe
000003c0: c6ac 12be 7cfb 5ebe 8b59 2a3c 0435 bc3d
000003d0: 3e8a f13c 218b 123e 36de fcbd b322 2d3b
000003e0: 16f7 f73d 7cea 2fbd b8ce 5cbe 2ddc f9bc
000003f0: bc97 a03d 7e78 00bd e39a bfbd 0812 27be
0.0008182871 0.02768746 0.36652553 -0.5870278 0.102212116 0.036978483 0.09356861 0.015283868
0.06796708 0.2242435 -0.38601282 0.09209103 0.14211835 0.007209592 0.005599186 0.22402428
0.0374778 -0.053126022 -0.014614332 0.029405132 -0.09327979 0.0885344 0.022315219 0.07110012
0.07279542 0.10691641 -0.025555657 0.1371563 0.0053897193 0.08185318 0.18348953 0.12754934
-0.09434291 -0.18434186 -0.035005536 0.05043757 -0.1894846 -0.11461184 -0.025904756 -0.006943648
-0.0891739 -0.06254578 0.07429165 -0.108845286 -0.14797363 -0.09988458 -0.23767206 0.048565
-0.29134113 -0.39381433 -0.4739582 -0.15250453 -0.14519617 -0.08751716 -0.2921426 -0.520029
-0.41809046 -0.2740923 0.041274503 -0.20526545 -0.1962279 -0.10129464 0.06340699 -0.075953804
0.012417489 -0.041090056 0.23976457 -0.093811736 0.021289133 0.04809377 0.16516462 0.103983104
0.16336288 0.51802194 -0.015316643 -0.03846189 0.34422287 0.05205168 0.16901506 0.18911625
0.36401215 0.32084572 0.33010414 -0.020970523 0.12700312 0.32419375 -0.0044967434 -0.061950773
0.31526232 -0.27315906 0.16632038 0.078163415 -0.093161345 0.0023685768 0.110122114 0.17623028
-0.26538175 0.14796978 0.09630158 0.112211294 -0.027360186 0.095474444 -0.03078635 -0.06251001
0.13708249 0.06878197 -0.18352945 0.07622124 -0.0783494 0.18247508 0.09784582 0.17781302
0.13940895 0.18548843 0.14429238 0.0040514763 0.27851605 0.16335915 -0.03738938 -0.21100967
-0.07944551 -0.085884795 -0.065934226 -0.042583182 -0.045569897 0.034306932 -0.0942381 -0.07779645
0.059081227 -0.08237431 -0.20031227 0.02910477 -0.09379325 -0.0019453838 -0.27785057 -0.277565
-0.40668026 -0.1219648 -0.3171915 0.028339356 -0.20094253 -0.48794693 -0.35877874 -0.258687
-0.085972294 -0.26216 -0.23912306 -0.0968928 0.03762582 -0.15068172 0.07174361 -0.09186613
0.21970414 -0.17204404 0.1337635 0.1192541 0.15684298 0.073650345 0.27870166 0.47325885
-0.018494679 -0.049169656 0.29701468 0.010731667 0.13851018 0.15332247 0.34288493 0.16745901
0.39389142 0.12835322 0.12707926 0.24374613 0.03910315 -0.048082758 0.06873999 0.03385409
0.08118357 0.10100591 -0.020594321 0.0028073937 -0.10247792 -0.053461306 0.03142792 -0.048761316
0.21418343 0.056647703 0.02028726 -0.12070091 -0.12479541 0.0012563405 0.089487955 0.05863624
-0.15465397 0.06944665 -0.0031737015 -0.15732825 -0.06975612 -0.02321337 -0.017879171 -0.10833817
-0.031811554 0.32443377 -0.10506883 -0.17372374 0.13657288 0.105804265 -0.12665991 0.06638141
-0.03815535 0.07901216 0.15398727 0.061474007 -0.014316775 -0.001848489 -0.010234192 0.0151354605
-0.06238395 -0.07390343 0.10238128 -0.09089813 -0.097015865 -0.047697112 -0.10435532 -0.077043585
-0.10480899 -0.10293345 -0.18334056 0.1232375 -0.057614606 -0.17399308 0.10575546 -0.09219704
-0.042885844 0.021964654 -0.01385092 0.13777238 -0.015102576 0.10740059 -0.015080907 -0.13510999
-0.1432372 -0.21775621 0.010397325 0.091897994 0.029484864 0.14310886 -0.12347071 0.0026418387
0.12107675 -0.04294823 -0.21563232 -0.030500496 0.07841441 -0.03136491 -0.09355714 -0.16315472

layers.0.bias f4 [200]
00000000: 09e3 ce3d 1433 223b 4608 2bbe d43c 2c3e
00000010: ca4d 5b3d 3072 f63c 61fc c0bd 145b a2bd
00000020: 360d ca3d 59da 83bd fe49 563e dd46 1e3e
00000030: b8b3 5dbd fc41 d53d b0b1 273c dc64 9fbc
00000040: 5e48 da3d 1c6f 2e3e a515 b4bd cc10 173d
00000050: 7565 0f3d 6040 143e 1c2a f2bc da3f 313e
00000060: cd33 fd3d 280c 143c a0dd 933c 1032 323d
00000070: 4223 73bd b0d1 f4bb d23b 4cbd 24c8 03bd
00000080: 2e52 bd3d 22c7 a5bd 1d0e d33c 02fa af3d
00000090: 13ee a2bd 5778 413c 70d9 eebc 201a a23b
000000a0: 385d 4e3c ff8e 91bd 044e 703d 2785 783d
000000b0: 1361 033e c4ed 173d fbb9 133d 3811 d33c
000000c0: 0e74 abbd 54f7 043d 46b1 4fbc 4c00 9cbd
000000d0: bf0d 37bd 176a 6139 951f e73d b410 cbbc
000000e0: 4485 ba3d 2b34 b43b bea6 ce3d 1d24 debd
000000f0: ba9f 183c 9075 b1bd 5463 c33d bd09 e73d
00000100: c172 0dbd 9419 dabd c0f5 b5bd 6036 c53c
00000110: 1214 4ebe 9eb0 643d a105 a83d fcd3 303e
00000120: c607 dfbc 072e 80be 3759 79bd 9346 c3bd
00000130: 704a 313d 62c8 f8bd 00e9 84bc 7087 35bd
00000140: da8a 9fbd 36fe cdbd c4ba 133e 2844 d43d
00000150: 1165 b1bd d894 01be 421f d5bd 4df0 ffbd
00000160: b01b c8bc 4e02 9bbd fe49 ab3d ce4a 41bc
00000170: 4235 acbc d6b4 e6bc c430 c53d 7496 02be
00000180: 60e3 2f3d 37c8 c6bd 3843 c83c 9937 453d
00000190: d870 553d 2c98 97bd 6ecd 39bd a82d 62be
000001a0: 606a 683d 4e38 c93d b10f 8e3d 40df 403e
000001b0: b40c af3d 34c1 953d 7a10 f73d 80c0 413a
000001c0: 7a3d c83d 0c40 0bbd f82f 9dbd 8bc7 d1bd
000001d0: 5261 cf3d 461f cd3d 1095 903d 1741 62bd
000001e0: 3e1e 3bbd ae60 ce3d 111e b43d fb75 91bd
000001f0: 561d c8bd 0052 cd3d 553e 42be 85fb eabd
00000200: 19ab 583d 88df abbd c5f9 d9bd f2fc 84be
00000210: d051 843d 8060 653a c627 10bd 64ce 693d
00000220: 15e5 c93d f449 713d 8f1c af3d 4c20 353d
00000230: 1621 883d 60c3 84bb dc8b 663d 449c 44bc
00000240: cf86 f93b baa0 bdbd 9988 273c 12bb 5fbe
00000250: b8b4 913c 8c06 ae3d 562f b13d a1e6 a7bd
00000260: 8f6e d1bd ca5e 463d b362 c0bd 2834 e33c
00000270: 8b83 663d b381 04be 0a77 b63d 007c 683a
00000280: 880c b43d cc13 b63c 7d08 cc3d 5876 833d
00000290: df28 143d 2293 9cbd 200b 8cbd 273f 5bbc
000002a0: 7088 a33d 0026 003a c4fd fcbc 01c6 f7bd
000002b0: 85d3 44bd 3076 f43d de8c cbbd 0838 6cbc
000002c0: eac7 d73d 2541 aabd 7f88 b6bd d642 da3d
000002d0: c0e7 203b c8ef a03d 11a6 33bc 8083 07bb
000002e0: 1739 f13d ea35 323e ffe2 253e 764d b73c
000002f0: b42c 02be 8405 debc ceaa 0abd 2455 dcbb
00000300: 5815 5dbd 2e1d 0c3e ab90 f8bc 2c43 323a
00000310: ac5e 9e3d 94eb 03bd 387f 32bd 2282 2a3e
0.10101897 0.0024749683 -0.16702375 0.16820079 0.053540982 0.030083746 -0.094231375 -0.07927528
0.09865801 -0.06438131 0.20926663 0.1545672 -0.05412647 0.10412976 0.010235235 -0.019457273
0.10658334 0.17034572 -0.08793191 0.036881253 0.035008866 0.14477682 -0.029561095 0.17309514
0.12363396 0.009036101 0.018050015 0.043504775 -0.059359796 -0.0074712858 -0.049861737 -0.03217329
0.0924419 -0.08094622 0.025763566 0.08592607 -0.07955565 0.011808476 -0.029156417 0.004946962
0.012595467 -0.071073525 0.05866815 0.06067386 0.1283 0.037091985 0.036066037 0.025765046
-0.08371745 0.032462433 -0.012676543 -0.07617244 -0.044690844 0.00021497194 0.11285321 -0.024788238
0.0910745 0.005499383 0.10090397 -0.10846732 0.0093154255 -0.086650014 0.0954043 0.11281154
-0.034533266 -0.1064941 -0.08884764 0.02407378 -0.20124844 0.055832498 0.08204199 0.17268366
-0.027225386 -0.25035116 -0.060876098 -0.09534945 0.04328388 -0.12147595 -0.016224384 -0.044318616
-0.07790156 -0.100582525 0.14426714 0.10364562 -0.08661855 -0.12654436 -0.104063526 -0.124970056
-0.024427265 -0.07568799 0.08363722 -0.01179762 -0.021021489 -0.028162401 0.09628442 -0.12752706
0.04294145 -0.09706157 0.024446115 0.048148725 0.05210957 -0.07402071 -0.04536193 -0.22087729
0.056742072 0.098251924 0.06936587 0.18835163 0.08547345 0.07312241 0.120636895 0.00073910505
0.09777351 -0.033996627 -0.07675165 -0.10243138 0.10125984 0.100157306 0.070596814 -0.055237856
-0.045683138 0.10077034 0.08794797 -0.07102581 -0.097712204 0.10025406 -0.1896909 -0.11473755
0.052897546 -0.083922446 -0.10643343 -0.25974232 0.06460917 0.00087500364 -0.03519418 0.057081595
0.09858147 0.058908418 0.08550369 0.044220254 0.06646936 -0.004051611 0.056285724 -0.012000147
0.0076149474 -0.09259172 0.0102254385 -0.21848705 0.017786369 0.084973425 0.08651607 -0.08198286
-0.102261655 0.04843024 -0.093938254 0.027734831 0.056277793 -0.12940101 0.08909424 0.0008868575
0.08791453 0.022226237 0.099625565 0.06419057 0.03617179 -0.07645251 -0.068380594 -0.013381756
0.07985008 0.0004888475 -0.030882724 -0.12098313 -0.048053283 0.11936605 -0.09938978 -0.014417656
0.105361775 -0.083132066 -0.08912753 0.10657279 0.0024552196 0.07858235 -0.010964886 -0.0020677745
0.11778467 0.17403379 0.16199873 0.022375803 -0.12712365 -0.02710224 -0.0338543 -0.0067240167
-0.053975433 0.13683006 -0.03034242 0.00068001705 0.07732901 -0.032207087 -0.043578357 0.16651204

layers.1.weight f4 [200, 200]
00000000: 35a0 613d e064 963d ef86 17bc 16f6 113e
00000010: 0f13 433d e674 28bd 3632 37bd 7007 683c
00000020: b04b 923c b311 4fbd c288 b1bc 76f4 0c3d
00000030: fe2e e6bc 76a1 5d3d c79d 8bbd cda0 72bd
00000040: b715 383d 7fcd 813d 101a c4bc eaae 023d
00000050: 7ac7 41bc 7fdb 17bd 3933 40bd 3536 813c
00000060: 4d3a d8bc 8e79 3e3d ecec 3c3d 9534 0f3d
00000070: e048 153b 3e65 8abd 92e5 b63d 96b8 453d
00000080: 2037 d53d c666 103d ee27 bd3c d75c 20bd
00000090: a182 18bc 8398 45bc cabd 193d 1065 cfbb
000000a0: 6cd8 dd3c d1e6 17bd 61b7 16bd 3625 6c3d
000000b0: 8dc4 20bd 9260 0fbd a75c 4cbc c418 e23c
000000c0: 5c4a 3fbc 7099 f13b db37 88bd 4b3d ed3c
000000d0: 1827 8dbd 509b 3a3c 8529 8cbc a071 893b
000000e0: c7de 37bd a695 633d 84d1 f33c 6091 523d
000000f0: 47f9 723d 383e ae3c 6228 8abd 226b c7bc
00000100: ec61 fabc eaff 75bd ba45 71bd 22bc 32bd
00000110: b3dc 013d 0846 70bc 6947 d7bc 9d83 a83d
00000120: ee71 a33b 395a 973d f60a 513d ee90 2dbd
00000130: 3ce6 42bd e4ea 893b 3a1e 093d 0048 97bb
00000140: 881b 19bc 4009 c53c 47cb ae3c 0851 debc
00000150: 808f 41bd 8693 82bd 6a21 8f3d bc11 8bbd
00000160: d220 223d c643 4e3d 8b4c 8d3d 0cc1 d4bb
00000170: cbce 3f3a 89ae cebb 0110 31bd d82a 4bbe
00000180: 6289 993a effa ecbc c58f 883d 3a2b 7b3d
00000190: 42e0 0cbd 02aa 16bd d7b0 8e3d 242f 1fbe
000001a0: eea4 4f3d c26b 943d fc18 8e3d 14f6 7a3d
000001b0: 2c7e 3cbc 4acd 433d 6a39 68bd e4b2 8bbd
000001c0: 0a40 0b3d c46b a03d 6986 67bd 45c0 4bbd
000001d0: b8ff 1e3c 6085 643c 0cdb cdbc 4349 3c3d
000001e0: 104d 8d3b 2dbf 0ebd 1baf 473b c497 76bd
000001f0: c024 313d 394f 1f3d 0e53 32be 230f 9a3d
00000200: 7fd6 4cbd 00ba fc3a 4888 ae3c d91d 9bbd
00000210: c28d 683d d816 3ebc 021e 2e3d 2422 c3bc
00000220: 94b3 3f3e a086 cbbb fb74 25bd 44aa e93c
00000230: 7fe8 8a3c 531f 8c3d e21d 633d db69 20bc
00000240: 72b8 d53b 38fd 613c c89d 193d d780 9f3d
00000250: 102f 023c 533f 84bd 5ec4 093d 86db 43bd
00000260: 4f18 80be 08cd ecbc f008 7d3c c4a7 f93c
00000270: d538 64bd 30c2 d4bb 4886 b2bb 4ee3 12bd
00000280: 4813 40bc 00fd 05be 80b1 46bd fa48 df3c
00000290: 7cf3 023d 0081 c5ba 1878 453d 0a5d 103d
000002a0: d641 1ebd 3190 5fbd fffe 7dbd 5581 25bc
000002b0: d096 8dbb 192d c53c 1f8d 61bd 54fa 563d
000002c0: 8004 ec3d c098 80ba b662 363d 1437 9b3c
000002d0: c876 e4bc 7a0d 003e da9a cdbb e8f2 64bd
000002e0: 3531 8ebd 8ba3 603c d432 933d 0282 a13c
000002f0: 8b5d 6bbb be76 2a3d 25ac 873d 11d9 613d
00000300: 0dd9 553c e9c2 07bc 453a 343d 4d34 fd3c
00000310: 5a36 2e3e e402 0bbc 2c64 9d3c b216 e83d
00000320: 562c fe3d fd1b a63d 8b49 04bd 7a9a e93d
00000330: 280f 15bb 9c11 5e3d 8253 29bd 0448 a43c
00000340: 88b7 15bd d4fe e1bd 3e60 963d 7304 383d
00000350: b412 3c3d 685d f53c 3d84 0ebd b2d8 6f3d
00000360: 2dee 673d f230 0fbd 4137 e63b f4ae 04bd
00000370: f6a8 bbba bee2 1f3d c97a 8ebd 432b 50bd
00000380: d9e1 38bd aabf 653d 2829 15bd b0c4 84bc
00000390: fb1f babc 9656 fbbc 03d7 873d cb69 79bd
000003a0: 7178 a13d 7451 5ebd a46e 733b d1ed 8f3c
000003b0: 6554 813d b405 813d e2e5 36bd 9688 86bd
000003c0: e45d 2fbd 584a 15bd 5dd5 7fbd 5fcf bebb
000003d0: 1314 a2bc 90ef 963b 03ae 3cbd d0d4 4dbd
000003e0: 4001 c33b 542b 84bd b442 303d b363 74bd
000003f0: 77cf 80bb 9c36 39bb ce53 4fbc 9816 223c
0.055084426 0.07343459 -0.009248479 0.1425403 0.047625598 -0.041127108 -0.04472562 0.0141619295
0.017858356 -0.05055399 -0.021671657 0.034412824 -0.02809858 0.05410906 -0.06817203 -0.059235383
0.044942584 0.063380234 -0.023938209 0.031905092 -0.011827344 -0.037074562 -0.04692385 0.015772918
-0.026394987 0.046502642 0.046124384 0.034962256 0.0022779033 -0.06757592 0.08930506 0.048271738
0.10410905 0.035254262 0.023090329 -0.03915104 -0.009308488 -0.012060287 0.037534513 -0.0063291863
0.027080737 -0.037085358 -0.036795978 0.057652675 -0.039249945 -0.035004206 -0.012473262 0.0275997
-0.0116754435 0.0073730275 -0.066512786 0.02895989 -0.06892222 0.011389568 -0.017109642 0.0041944534
-0.04489019 0.055562638 0.02976299 0.05140817 0.05931976 0.021269903 -0.06745984 -0.024343077
-0.03056427 -0.06005851 -0.058904387 -0.04363645 0.031704616 -0.014665134 -0.026279168 0.08228228
0.0049879467 0.073902555 0.051035844 -0.042374544 -0.04758285 0.0042089093 0.033476092 -0.0046167374
-0.009344943 0.024052262 0.021337165 -0.027138248 -0.047255993 -0.06375794 0.06988795 -0.06790492
0.03958208 0.050357603 0.06899365 -0.0064927395 0.00073168863 -0.0063074273 -0.043228153 -0.19840562
0.0011713917 -0.028928248 0.06668047 0.06132052 -0.034393556 -0.036783226 0.06967323 -0.15545326
0.0506944 0.07247116 0.06938359 0.061269835 -0.011504691 0.0478032 -0.05669538 -0.0682123
0.03399662 0.07833055 -0.056524668 -0.04974391 0.009704523 0.013947815 -0.025128864 0.045968305
0.004312165 -0.03485029 0.0030469361 -0.06020333 0.04324794 0.038893912 -0.17414495 0.07522418
-0.050009247 0.0019281507 0.021305218 -0.07574052 0.056775816 -0.011602126 0.042509086 -0.02381999
0.18720847 -0.006211117 -0.040394764 0.028523572 0.016956566 0.06841912 0.05544842 -0.009790863
0.0065222317 0.013793282 0.037503988 0.07788246 0.007945791 -0.06457391 0.033634536 -0.047816776
-0.25018546 -0.02890636 0.015444025 0.030475505 -0.05571826 -0.0064928755 -0.0054481365 -0.035861306
-0.011723347 -0.13084793 -0.04850912 0.027256478 0.031970486 -0.0015068352 0.048210233 0.03524498
-0.038637005 -0.05458087 -0.06201076 -0.010101636 -0.0043209568 0.024069356 -0.055066224 0.052484825
0.11524296 -0.0009811148 0.04452773 0.018947162 -0.02788867 0.12505141 -0.0062745633 -0.055895716
-0.06942979 0.013710867 0.07187429 0.019715313 -0.003591391 0.041617148 0.06624631 0.05513865
0.013052237 -0.008286216 0.044000883 0.030908728 0.17012921 -0.008484576 0.019212805 0.11332454
0.124108 0.08110807 -0.0322967 0.11406417 -0.002274463 0.054216012 -0.041339405 0.020053871
-0.036551982 -0.11034933 0.073425755 0.044926118 0.045916274 0.029951766 -0.03479408 0.058556266
0.056623627 -0.034958787 0.0070256297 -0.03239341 -0.0014317322 0.039034598 -0.06957013 -0.050822508
-0.04513726 0.05609099 -0.036416203 -0.01620707 -0.022720328 -0.030680936 0.06632807 -0.060891908
0.078843005 -0.0542769 0.0037144804 0.017569454 0.06314925 0.06299916 -0.044652827 -0.065690205
-0.04281415 -0.036447853 -0.06245934 -0.0058230604 -0.019784963 0.004606195 -0.046064388 -0.050251782
0.0059510767 -0.06453577 0.043032363 -0.059665393 -0.0039309817 -0.002826131 -0.012654258 0.009893082

layers.1.bias f4 [200]
00000000: 3811 1f3e 2b9d 923d 4399 253e 6605 373d
00000010: 5fef 003e fcba 953d 8e8d 023e 50e6 2e3e
00000020: 9623 293e d5d1 983d c861 753d 5e40 5fbd
00000030: 4e3c 9a3c f93a ba3d 5b2a 193e a22d c83d
00000040: ea7e 77bd 88e5 08bd 1459 e7bb afa1 523d
00000050: 7c92 f0bd 993b 01bc 90f5 d13d 0c1c f33d
00000060: 26ab 2cbc cee1 33be 370b ff3d 3311 85bc
00000070: 86c7 203e a58d d4bd a32e c43d 1d7f 9d3d
00000080: 3acd 7bb9 8017 013a 0214 2abe 6898 e33d
00000090: ba7f 383d 4399 f9bc 2a3b cc3d 1740 2b3e
000000a0: f2a8 883d 9913 fd3c d611 61bd cb61 e43d
000000b0: edb9 07bd f22f a5bd 2b68 83bd 5086 99bd
000000c0: 2c24 8f3d 3dfb 833d b797 cb3b 2271 bd3c
000000d0: 7e3a eabd 6166 303e f56f 863d 999b 8b3c
000000e0: 49e2 b53d 5b6a 313e eb0f 6f3c f692 d73d
000000f0: 278b e53d c581 333e b4f2 683d caa6 fc3d
00000100: ae81 9d3d 3bec ea3d b293 b93d 07aa 9bbc
00000110: f649 a23d 781e 9c3c 4c6b d23c 92d1 2e3e
00000120: 6607 843d 24ae 3d3e efe4 ff3d 0756 4a3d
00000130: fa31 9e3d c43d 4a3d 4820 873b 4156 833d
00000140: 9c4d 8b3c 4ca1 363d eedd 423d 3ac3 5dbd
00000150: fc98 653d 205d 023e 4f0a b9bd 1bad 093e
00000160: f5f9 1a3e 072a 2e3e 7977 063e 65cc c93c
00000170: 7af9 7abd 02d0 d43c 11d1 f1bd cdb2 043e
00000180: b185 b93d 8b2c 143e 4715 9e3d 9a30 f13c
00000190: 53b4 71bc de4b 4d3e d68a 683d b941 22be
000001a0: 697e e13d 007e 103e 7633 4f3d 0023 11bd
000001b0: b420 3f3d c26e 5abd 6c5d c63c c8fb 233e
000001c0: 944d d53d 5044 1abd 0918 073e 7815 93bd
000001d0: bbd4 be3c b8a7 03bc 18c9 883d 110c a23d
000001e0: f191 31bb b01a ff3d 41ff 1d3e ced6 e13c
000001f0: 420d 1c3e 17f9 163c f3e2 aebd a7cc 1b3c
00000200: e04f 1b3d a279 243d 40e2 0e3d f756 31bb
00000210: 263f d73d a9d9 873c 10c1 8b3d f1e1 3e3c
00000220: eb65 bc3c 88d8 ac3c e5ae ba3b df29 80bd
00000230: 9e7f 453b ee7a 293d dbb2 98bb 1bc8 853d
00000240: a838 053e 92c1 5b3d ec24 fe3d 9813 ed3d
00000250: 1e96 1d3e 40ad 6e3d 8885 1b3e 003e f33d
00000260: a689 4d3e 96f3 643d eb4d fb3d d652 bfbd
00000270: d66e 76bd 87a7 143e 0481 8a3d 2e82 273e
00000280: 78f4 d03d ea43 b23d 7f59 523d b737 8f3d
00000290: 3481 bf3b 9804 e73d c702 0b3c fc19 543d
000002a0: f81b ae3d 1cd6 16be 0650 fc3a 6d39 bb3d
000002b0: 0794 71bc e055 4b3d aaac a9bc a95a 2fbd
000002c0: 3818 13bc 171c 133e 0f75 2f3e 6b55 a23d
000002d0: c2ff fc3d 9516 d03c 4405 2b3e cdb0 fbbb
000002e0: 66b6 f33d c5ce 3e3d cb18 10be 7e7a 3a3d
000002f0: da29 b63d 9195 3dbc 5f95 293e 292d 833c
00000300: 3c06 63bc ced8 bf3d f3ab 443d b279 b73d
00000310: 1a3d 243d 010c 273e 4110 df3c 89ff 113e
0.15533912 0.07158884 0.16171746 0.044682883 0.12591313 0.07311055 0.12749311 0.17080045
0.16517481 0.07461897 0.059907705 -0.054504745 0.018827584 0.090932794 0.14957564 0.09774329
-0.06042377 -0.033422023 -0.0070601795 0.051423725 -0.1174669 -0.007887744 0.102519155 0.11870584
-0.010538852 -0.17566606 0.12453311 -0.016243553 0.15701112 -0.10378579 0.09579208 0.076902606
-0.00024013678 0.0004924461 -0.16609195 0.111130536 0.045043685 -0.030468589 0.09972222 0.16723667
0.06672849 0.030893134 -0.05494865 0.11151465 -0.033136297 -0.080657855 -0.06416353 -0.07496321
0.06989321 0.06444404 0.006213154 0.023125235 -0.11436938 0.17226554 0.06564323 0.017041968
0.08881051 0.17325728 0.0145911975 0.105260774 0.11208182 0.17529972 0.056872085 0.123365
0.0769075 0.11470839 0.09061374 -0.019001974 0.07924263 0.019057497 0.025685929 0.17072132
0.06446724 0.1852346 0.124948375 0.04939845 0.07724376 0.04937531 0.0041237213 0.06412936
0.01700478 0.04458742 0.04757493 -0.05414126 0.0560541 0.12730837 -0.09035169 0.13444941
0.15134414 0.1700822 0.13131513 0.024633596 -0.061273076 0.025978092 -0.118074544 0.12958832
0.09058703 0.14470117 0.07718902 0.02944212 -0.014752465 0.20048472 0.05677303 -0.15845384
0.11010439 0.14110565 0.050586186 -0.03543377 0.046662048 -0.053328283 0.024214469 0.16014016
0.104151875 -0.037662804 0.13192762 -0.07181829 0.023294797 -0.008035593 0.066789806 0.07912458
-0.0027095044 0.12456262 0.15429403 0.027568247 0.15239432 0.009214661 -0.08539381 0.009509242
0.03791797 0.04015506 0.034883738 -0.0027059892 0.105100915 0.01658328 0.06823933 0.011650548
0.022997817 0.021099344 0.0056971186 -0.06257986 0.003013588 0.041377 -0.004659993 0.06532308
0.13009894 0.0536514 0.12409386 0.11576003 0.15389296 0.058270693 0.15187657 0.1187706
0.2007204 0.055896364 0.12270721 -0.093419716 -0.060164295 0.14517032 0.06762889 0.16358253
0.10202879 0.0870436 0.05135488 0.06993049 0.0058442596 0.11280173 0.008484549 0.051782593
0.08501428 -0.14730114 0.0019249923 0.091418125 -0.014744765 0.049642444 -0.020712215 -0.04281107
-0.008977942 0.14366184 0.17134498 0.079264484 0.123534694 0.025401393 0.16701227 -0.0076809884
0.11900024 0.04658391 -0.14071958 0.045526974 0.08894701 -0.011571304 0.16560887 0.016012745
-0.013856467 0.09367524 0.048015546 0.089587584 0.040097333 0.16313173 0.02722943 0.14257635

layers.2.weight f4 [200, 200]
00000000: 7ab7 2a3d 1ad5 14bd 071f c93c eb7d 3d3d
00000010: 96ea 22bd c63f 233d 236c 07bd f560 ffbb
00000020: 62e0 223d cb1e 103d 4e2b 02bd f689 e93c
00000030: 3cdd f6bc abe3 133d 081d 77bd 0310 a53d
00000040: c159 e03c 8f9f f83c 77dc 45bd 8bf5 96b9
00000050: a790 0c3d 8164 6d3d 2a93 0abd fb94 eebc
00000060: b635 0c3d da2f 86bd 8815 a23d 4329 1c3d
00000070: 5b04 853c 5465 50bb a938 8e3d 64a1 923d
00000080: 13c9 9c3d 2656 fabc fceb 54bd c0ee 273d
00000090: 0525 1ebc 9d72 dcbc 16dc 16bd 2235 5b3d
000000a0: 3a4f 0fbb 05c8 15bd fe50 a9bc 75c8 0b3d
000000b0: 50f2 35bd 2f8a 38bd d3a9 0ebd c1e1 6cbb
000000c0: 2482 2fbc 3049 4c3d a631 21bd 008e 7abc
000000d0: 1eca 4e3d 2935 a33d 8ac9 8c3d 8653 7ebd
000000e0: 969d 4a3c e73a 543d bb22 40bb 2cc9 593d
000000f0: 02cd cdbc 51e8 7e3d a45a 513d 85ea 203d
00000100: d41d c93c 529c 1bbd 71fd 3a3d d1a6 13bd
00000110: 2859 b73d d8c3 fabc dc05 80bd d963 0cbd
00000120: e101 26bc ad54 823d c4b7 0dbd e926 63bb
00000130: 7a1d 423d d8c1 1bbd f019 143c 8700 abbc
00000140: fd25 b7bc 02d7 753c 65c3 9b3d 4d6c 04bd
00000150: f4c1 1abd 80ad 723d 39a5 733d d593 8c3c
00000160: 2b93 953d fabd ecbc 6267 f9bb 2c35 f2bc
00000170: 6080 8c3b 8be1 82bd 1fb9 3f3c 67de aa3c
00000180: a7e3 7d3d 982f 353d a726 83bc 15b0 1fbd
00000190: fa3e 3fbd e65c c83c 1e6d 8dbd bf9a 6cbd
000001a0: 1aee 733c 7a04 c53c ffe4 ca3a c20c 133d
000001b0: e5fd 5a3d 57fc 4b3c 4d63 35bc 801e 73bd
000001c0: 462d 553d cb87 9c3c f0c2 783c d4b9 393b
000001d0: 2bc9 8c3d a8b2 97bc ae6a e8bc 9e69 c73c
000001e0: 223e fe3b a40a 23bb 57a8 5f3d 8eaf af3c
000001f0: c10b b8bb 5259 f93c 0995 463d 9036 da3a
00000200: c2ca 06bd 4e2c 123d b312 053d a79b 67bd
00000210: 2309 7c3d 508d 8cbd 3393 37bc 4290 dd3a
00000220: 4788 1abc 8411 713d 36e4 633d c86a 31bd
00000230: 74e6 363c a2d4 26bd ffa4 98bd b186 873d
00000240: efd6 f93c 604b 6abd 0828 063d c67b c03c
00000250: ec57 093d 7eff 323d 7bd6 bdba cdc1 47bd
00000260: 2619 19bc 96e8 173d 1e7c 7f3d 4704 a6bd
00000270: c8a5 cfbc 730e cfbc 209d 2abd 3f61 bd3c
00000280: 6d8d 0f3c a5a5 2d3d 41d4 31bd 035a 883d
00000290: b051 b03b 3430 783d 8ff4 85bd 665c 4dbb
000002a0: e86e a4bc 6466 acbd 97ed f0bb c618 a2bc
000002b0: fedf 2fbd dd58 0d3d 71f2 f73c 0b55 3d3d
000002c0: 37d0 3f3c a7b1 2b3c aaeb 09bd a38f b5bc
000002d0: 86b3 4dbd 20a6 f33c dc7e ca3a 4f64 6d3d
000002e0: 0590 0abd af09 aabc 6514 173d e312 363c
000002f0: be0c f9bc 5007 8bbd 3222 813d 0c87 e1bc
00000300: 8ceb 7fbd 2d0f dc3c 71dc 6ebc 6eca 4abd
00000310: dd2c 5f3d 9a8c 27bd 588e 023d 78f0 f7bc
00000320: a0ab 263b 89b5 2dbd cacf 3bbc 6e0c c13a
00000330: 1b0d 323d 278e 61bc 800c d033 3405 3dbc
00000340: 4e23 123d 54ac 3f3d f19f 333d 796b 63bd
00000350: 9399 40bc 293d f1bb be9f 91bb 6334 1bbc
00000360: 9025 7bbd 018a aebc 3c1b 9d3d dac3 013d
00000370: a413 803c 3338 07bd 2161 833c 508f 983d
00000380: cd9a 9d3d b334 0c3d 1e06 5ebd 0ce3 babc
00000390: 028c 6dbd d870 3ebd d7a9 9c3c 0a77 f7bb
000003a0: 8a46 fa3c c2b2 7a3d 4362 71bd d6a4 dd3c
000003b0: 27c0 433d 8a2c 793b d13e d0bc 186d 8d3d
000003c0: 94ba 56bd 4be2 843c 85df 8c3d f8b2 36bd
000003d0: 2e0a bc3c 2c02 4d3d d0d2 693c e7ad 853d
000003e0: b67c e53c 4cac 953d 3bb6 a7bc 0671 50bd
000003f0: d9ba 2a3d fa36 a43d f660 a3bc 1360 43bc
0.041678883 -0.036336042 0.024550928 0.046262663 -0.0397745 0.03985574 -0.03306211 -0.0077935406
0.03976477 0.035185616 -0.03177958 0.028508168 -0.03013479 0.036105793 -0.06033042 0.080596946
0.027386548 0.030349521 -0.048305955 -0.00028793173 0.03431764 0.057957176 -0.033831753 -0.029123774
0.03423091 -0.06552096 0.07914263 0.038125288 0.016237428 -0.0031798678 0.06944401 0.07159689
0.07655539 -0.030558657 -0.051982865 0.040999174 -0.009652381 -0.02691012 -0.036830984 0.05351747
-0.002186729 -0.036567707 -0.020668503 0.034126718 -0.04442054 -0.045053657 -0.034829926 -0.0036145302
-0.01071218 0.049874485 -0.03935399 -0.0152926445 0.050485723 0.07969124 0.06874378 -0.062091373
0.012366673 0.051813986 -0.0029317576 0.053170368 -0.02512217 0.062233273 0.051111832 0.039286155
0.024550356 -0.037990876 0.045651857 -0.03604776 0.08952552 -0.030610964 -0.062511176 -0.03427491
-0.010132284 0.06363807 -0.03459908 -0.0034660643 0.047391392 -0.03802666 0.009039387 -0.020874275
-0.022356981 0.015004875 0.07605628 -0.032329846 -0.037782624 0.059247494 0.05948374 0.017160336
0.07303461 -0.028899182 -0.007611201 -0.02956637 0.0042877644 -0.06390675 0.011701851 0.020858003
0.061984684 0.044234842 -0.016009642 -0.038986284 -0.04669092 0.02445836 -0.06905578 -0.057764765
0.014888311 0.024049986 0.0015479623 0.03590084 0.05346479 0.012450299 -0.011071038 -0.05935526
0.05204513 0.01910772 0.0151831955 0.0028339522 0.06874307 -0.018517807 -0.028371181 0.024342354
0.0077588717 -0.0024878168 0.0546039 0.021446016 -0.0056166355 0.030438099 0.048481975 0.0016648341
-0.03290821 0.035686783 0.032488536 -0.056544926 0.06153215 -0.06862891 -0.011204529 0.0016903954
-0.009431905 0.058854595 0.05563756 -0.043314725 0.011163343 -0.040730126 -0.074533455 0.06617487
0.030497996 -0.05720079 0.03275302 0.02349652 0.033531114 0.043700688 -0.0014483476 -0.048768807
-0.009344375 0.037087046 0.062374227 -0.081062846 -0.025347605 -0.025275445 -0.041653752 0.02311766
0.008761746 0.0423943 -0.04341531 0.066577934 0.0053808317 0.060592845 -0.065407865 -0.0031335591
-0.020072415 -0.08417967 -0.0073525417 -0.019787204 -0.042938225 0.034508575 0.030266972 0.04622368
0.011707357 0.010479367 -0.033672012 -0.022163218 -0.050220035 0.0297423 0.0015449184 0.05795699
-0.033828754 -0.02075657 0.036884684 0.011112901 -0.030401584 -0.06788504 0.0630535 -0.027530216
-0.062480494 0.026862705 -0.0145789245 -0.04950946 0.054486144 -0.040905572 0.03187403 -0.030266032
0.0025431886 -0.042409454 -0.011463115 0.0014728436 0.04346953 -0.013766802 9.6880285e-08 -0.011536885
0.0356782 0.046795204 0.043853704 -0.055522416 -0.011755365 -0.007362027 -0.0044440916 -0.009472939
-0.06131512 -0.02130604 0.0767121 0.03168092 0.015634365 -0.03301258 0.016037526 0.0744921
0.076955415 0.034229945 -0.054205053 -0.022813343 -0.05799485 -0.046494335 0.019123955 -0.0075520324
0.030551214 0.061205633 -0.0589316 0.027056139 0.047790673 0.0038020932 -0.025420578 0.069055736
-0.05242403 0.016221186 0.068785705 -0.04460427 0.022954073 0.0500509 0.014271453 0.0652731
0.028013568 0.07308254 -0.020472636 -0.050889038 0.041682098 0.080182984 -0.019943696 -0.011924761

layers.2.bias f4 [200]
00000000: 3630 4b3d 0ab0 f73d 5a0b 313e 8ca3 253e
00000010: de8a 403d 594d 9a3d f638 c23d 38e0 4f3d
00000020: 5be8 883d 2a88 663d c227 413e 6968 0cbd
00000030: d44c 33bc eb76 a2bc 4012 0a3d 936b 1a3e
00000040: 92c5 94bc 933c a63d 6b38 9f3d 17c2 4e3d
00000050: fb20 f43d b501 8b3d 0445 283e a447 a63b
00000060: 1506 083e 9318 913d a4f6 0c3d 5674 a73d
00000070: 38c8 1ebd 1bce 873d cb55 ce3d caf7 ea3d
00000080: a8d7 c83c 8643 f53d 8ea7 143e 5f21 163d
00000090: 6f6a 5e3d 0fd1 e43c 9590 36bc d5bf 9c3d
000000a0: a4ef 3e3e 8363 813d 4b5b 413c f237 36bd
000000b0: d3ea 103d 0fb9 93bc 318c 89bc 5c8c d1bc
000000c0: 4fe8 1e3d f956 bd3d a72a 203e 3299 db3d
000000d0: f0fb b6bd 4a67 1c3e 2a44 d2bd ee91 913d
000000e0: f8bd 123e 7dac 783d e411 243e bbe7 303d
000000f0: aaf2 983d 8596 973d 42be 3bbb 360d 113e
00000100: fcb4 aabd b775 183e 6a61 c73d 37f6 5a3d
00000110: af20 5a3b 6ca9 ef3d af53 103d c146 3c3d
00000120: 7dbf 1e3e a73e 7b3d a582 50bc 0a1d 893d
00000130: 06ee 9a3d a3b0 ce3c 829e f03d c1ed 133e
00000140: 94ed 8bbd 3b62 763d 97e6 613d 1f0e ba3d
00000150: 3598 703d 3698 833d b179 95bd 3049 163e
00000160: 150c 593d 0e2f 873d 1dce b33d cfd2 073d
00000170: c6a1 3c3d d435 e8bc 8e48 333e 43cc b43d
00000180: 4903 763d 12bf 5e3d 0e7b 463d 2093 6f3d
00000190: 3558 c03d 7a48 9b3d c941 863d 0481 b73c
000001a0: de4e d23b a1ba 58bd eca0 083e 5329 44bc
000001b0: 003a 723d eeec 833c 1cd1 4f3c 7b2e dd3d
000001c0: ef6f 263e 1b21 113e 367b c33d 09c0 ba3d
000001d0: 2902 eabc 2e7f 783d d14a ea3d 4d03 3cbd
000001e0: 2cac a73d 43aa c5bc cfa8 79bb 5992 943d
000001f0: f907 a43d 633e 043e ca0b 3b3e 5ed6 8b3d
00000200: a3aa 313e 0a67 70bd 6457 293e 57cc d73d
00000210: 8a4c 183e fc30 b33d c008 9a3d 6847 e23d
00000220: ec65 cbbc eef5 183d bb53 a63d 1719 4d3d
00000230: 0599 9bbc b474 7a3d 09fd 17bc 7bc3 73bd
00000240: 3065 a6bd 916c 403c 51ae 9d3d 5c87 dabc
00000250: 691d 0a3e 3ba5 083e c059 33be b44b b63d
00000260: a9a7 943d f949 f13d 2e69 09be d280 8e3d
00000270: df10 ad3d 305c 44bc 47df 083e c641 ce3d
00000280: 06e2 dabd c8d6 143e 15b0 3c3d da17 da3d
00000290: 0e2b e4bb a67e 943c c9cf 1c3e 838b fd3d
000002a0: 6cee b13d c7ac de3d 679d 143e fda5 163e
000002b0: 8769 603d 84d1 b33c 06fa 583d 307e 223e
000002c0: 6aaa fe3d 3f62 843b a356 9f3d 6040 8f3d
000002d0: 466f 5abc c9a5 e43c a15a 173e 5e54 3c3e
000002e0: f9bd 8b3d b4be 5d3d c4b8 b83d c32f 8abd
000002f0: a782 233d c365 a8bc e116 0d3e 591e 013e
00000300: 441c 913d e4c0 ea3d cb39 54bc 0316 2e3e
00000310: 26eb 313e 8b6f 283e a900 9b3d 47b2 013d
0.049606524 0.12094124 0.17289487 0.1617567 0.047007434 0.07534284 0.09483521 0.05075094
0.06684943 0.0562822 0.18862823 -0.03427926 -0.01094361 -0.019832095 0.03370881 0.15080099
-0.018160615 0.08117022 0.07774433 0.050478067 0.11920353 0.06787435 0.16432577 0.005074458
0.1328357 0.07084765 0.034414902 0.08176486 -0.038765162 0.066311084 0.100749575 0.11473043
0.024516895 0.1197577 0.14517042 0.03665292 0.05430072 0.027931718 -0.0111428695 0.076537766
0.18646103 0.063178085 0.011801551 -0.044486947 0.035380196 -0.018032579 -0.016790481 -0.025579624
0.038795765 0.09245104 0.1564127 0.10722579 -0.08934772 0.15273777 -0.102669075 0.07107912
0.1433028 0.060711373 0.1602245 0.043189745 0.074681595 0.07401756 -0.0028647338 0.14165196
-0.08335301 0.14888655 0.09735377 0.053457465 0.003328364 0.117022365 0.035236057 0.045965914
0.15502734 0.061339047 -0.012726461 0.06694992 0.075649306 0.025230711 0.11748983 0.14446165
-0.06832424 0.060152274 0.05515155 0.09084725 0.058738906 0.06425516 -0.072986014 0.14676356
0.052990038 0.06600772 0.08779547 0.033160027 0.046052717 -0.02834598 0.17508146 0.08828022
0.060061727 0.054381438 0.048457198 0.05848992 0.09391824 0.07582183 0.06555516 0.022400387
0.006418093 -0.05291236 0.13342637 -0.011972743 0.059137344 0.016104188 0.012684133 0.10799881
0.16253637 0.14172785 0.09544985 0.09118659 -0.028565483 0.060668163 0.11440051 -0.045901585
0.08187136 -0.024129039 -0.0038095003 0.07254476 0.08009333 0.12914424 0.18266216 0.06827997
0.17350249 -0.058692016 0.16537243 0.105370216 0.14872947 0.087495774 0.075212 0.11048776
-0.024828874 0.03734391 0.08121439 0.050072756 -0.018993864 0.061146453 -0.009276637 -0.059512597
-0.08124769 0.011744634 0.07699264 -0.026675873 0.13487782 0.1334428 -0.17514706 0.08901158
0.07258541 0.11781687 -0.13419029 0.06958164 0.084504835 -0.01198487 0.13366424 0.10071139
-0.10687642 0.14535058 0.046066362 0.106490806 -0.0069631403 0.018126797 0.15313639 0.123801254
0.086880535 0.108727984 0.14513169 0.14711757 0.05478814 0.02195049 0.052972816 0.15868449
0.12434848 0.004040032 0.077801965 0.069947004 -0.013332194 0.027911084 0.14780666 0.18391559
0.06823344 0.054136947 0.09019616 -0.06747391 0.03991952 -0.020556336 0.13778259 0.12609233
0.07085469 0.11462572 -0.012953232 0.17000584 0.17374858 0.164488 0.07568485 0.03166416

layers.3.weight f4 [200, 200]
00000000: 5531 84bb 1f82 583d b2fe 243d 5bfb b83c
00000010: c973 15bd cb9a b3bc deff 4d3b 37fa 283c
00000020: 6a22 473d 14a0 913c 2fdd 803c 5381 d83c
00000030: e0c3 81bb f0b7 22bd c9d0 59bd 319f 60bd
00000040: f8ec 983c 8a8a 8cbc 95cf 70bd 7c65 733d
00000050: 42f4 683d 64b6 563d 6a40 81bc f699 d83a
00000060: 2ce1 8dbd 29f5 173d 3073 973d 5e96 d43c
00000070: 1429 0a3d ef9e 99bc d416 3c3b 47f3 853d
00000080: 3990 983d 7d6b dd3c a223 bd3b be2d 3bbd
00000090: 9e93 943b 5d46 b7bc 5641 02bd 41bd b6bc
000000a0: 0ecc 98bc 6876 66bd 533d 203d 2816 cf3b
000000b0: e0a0 5dbd 45a9 93bd 75ab d5ba 77a0 a0bd
000000c0: d4e7 223c 3c1a 8c3d 02f9 f53c b4f6 8c3d
000000d0: f775 913c be07 e9b9 2294 f53c 5102 163b
000000e0: bdf9 1dbd b64b 643d b541 973c 5226 3bbd
000000f0: 54d8 933d 27f1 96bc 4ba8 a23c 3bcf 78bd
00000100: 57e0 823d 1af7 d1bc 4475 92bd f7b6 eaba
00000110: c743 ef3c 424d f8bc 5317 0b3d d3be f0bc
00000120: a7ef 833d 1bdc 383c 7671 8dbd cff7 fd3c
00000130: c612 92bd 8ecc d93b 513f efbc ac53 093d
00000140: 33c2 e53c f227 173d 2a86 2b3d 8fc4 393d
00000150: b0ff f3bc 6fdf 2a3d af34 5e3a 0fc2 a6bd
00000160: 3270 54bd 1cb7 263d a7b6 82bd 50eb 573d
00000170: 7233 913d bc55 06bc d705 a5bd 2424 343b
00000180: 5d9b 82bd 0f80 063d a531 35bc 97f4 a63c
00000190: 9f23 8c3d 381e 8ebc c454 6f3b 6d39 723d
000001a0: 2fe5 2c3d 18d2 e43c 2e3b c4bc 9b76 61bc
000001b0: 30e2 173d 4e53 3bbd 489c 1dbd 60d4 83bd
000001c0: 3659 043d 85f4 78bd 6e86 a1bc 98b2 193b
000001d0: 3c27 433d 4da8 93bc 45b7 09bc e60d b53d
000001e0: 1549 84bd 2a7b 623d 5fb1 11bd 6770 34bd
000001f0: 6d5c 903d e50a 9eba 56ba 27bd 8aa7 833d
00000200: cc96 583d 5cc8 863d 6e19 5a3d 1c63 28bd
00000210: 4fdf a7bd ec6f 543d 8ef0 88bd 72a3 ecbc
00000220: 5c36 b6bc f7cb 0d3d 3c75 85bc dd38 0bbd
00000230: f0f5 6f3d 86b7 ec3c fce5 b63c 18bf 95bb
00000240: 27f7 933c cf3a e8ba 5d1b 453d 8ab5 dd3b
00000250: aef6 7f3d bdb7 9a3c ae34 a4bc 136a 893c
00000260: da51 d53c d556 3a3d 1be3 7e3d 4f58 86bd
00000270: 0afe f3bc 0e72 1bbc b9ea 4e3d 1004 2eba
00000280: 4dcd 1f3b 0c49 80bd adf7 54bd dc3a 593d
00000290: 6ff9 dbbc 6edd c23c 37eb d83c 77cf 14bd
000002a0: 84d7 a43c 4ad8 dab8 6ee8 38bc aad5 21bd
000002b0: 4458 f53c 8a7a 28bd 76fb 26bd be84 133d
000002c0: 407f 833c f353 70bd 5a80 72b9 0b5c cbbb
000002d0: 72ae 183d e5e5 d6bc 27a8 33bd 0621 f33c
000002e0: 1127 933c 1cdc 4fbd d02d b3bc 3fbd 043b
000002f0: 6f78 143d a766 2d3c e7a4 6fbd 992f 06bd
00000300: fd04 a23c bedf 35bd 7b64 5cbc b73e 6abc
00000310: 8e2f debc 6fc1 223c aaef a0bd 47dc 29bd
00000320: c14e 55bd 9c66 96bc 4518 203c f281 993c
00000330: eb72 863c b710 3d3d 0a6b 153d 8bf0 733d
00000340: 21e7 8fbd 4828 dfbc b9c1 4d3d 86eb 523c
00000350: 00c0 b337 4ba4 67bd 3189 a93a 2a58 24bc
00000360: 48d4 81bc 57fc 39bc 7491 603c 4081 2fbd
00000370: 7dd8 2dbc 1be7 043d ea27 93bd d85d a83c
00000380: 8443 a2bd 923d 57bd 6179 473d 32c8 5f3d
00000390: a635 6f3d 0a10 67bd a281 95bb b795 96bd
000003a0: bffc 6bbd 7cdc b63b 8370 b4bc c118 53bc
000003b0: 10b2 b1bc 2297 e9bc a7a2 e4bc be0f 2ebd
000003c0: 10b9 34bd 0f5d 0d3d e435 90bd a941 773d
000003d0: 13a9 ea3c 7adc 483d c635 8bbd c2b2 2c3d
000003e0: 30f3 42bd c1f6 7abd 4ea6 9a3c 9852 63bd
000003f0: a7bd 84bc 4407 5cbd 7985 4d3d 4554 9abd
-0.004034201 0.05285847 0.04028196 0.022580793 -0.036487374 -0.021924397 0.0031433026 0.010313562
0.048616804 0.017776527 0.015730469 0.026428854 -0.0039601177 -0.039726198 -0.05317763 -0.054839317
0.018667683 -0.017155904 -0.058791716 0.059422955 0.056873567 0.052420035 -0.015777785 0.0016525376
-0.06927714 0.037099037 0.07395017 0.025950607 0.03373058 -0.018752543 0.002870013 0.06540542
0.07449383 0.027028793 0.00577207 -0.04569792 0.004534199 -0.022372419 -0.03180059 -0.02230704
-0.018651988 -0.056265265 0.039120983 0.00631978 -0.0541085 -0.0721002 -0.0016301709 -0.07843106
0.009942967 0.06840941 0.030025963 0.068829924 0.017756445 -0.00044446992 0.029977862 0.0022889564
-0.038568247 0.055736266 0.018463949 -0.045690842 0.07218996 -0.018425537 0.019855639 -0.060744505
0.06390446 -0.025630523 -0.07151273 -0.0017907311 0.029207123 -0.030310277 0.03395779 -0.029387867
0.064421944 0.011282946 -0.069064066 0.031001953 -0.07132487 0.0066466993 -0.029204996 0.03352706
0.028046703 0.03690333 0.041875996 0.04535347 -0.029785007 0.04171699 0.00084764784 -0.081424825
-0.05186481 0.04070197 -0.063824944 0.052714646 0.070898905 -0.008199152 -0.080577545 0.0027487362
-0.063772894 0.03283697 -0.011059199 0.020380301 0.06842732 -0.017348394 0.003651903 0.059136797
0.042210754 0.027932212 -0.023954 -0.013761188 0.037080944 -0.045733742 -0.03847912 -0.06436992
0.03231164 -0.060780067 -0.019717421 0.0023452397 0.04764484 -0.018024588 -0.008405511 0.088405415
-0.06459252 0.05529324 -0.035569545 -0.044052508 0.07048879 -0.001205769 -0.04094919 0.0642844
0.052878186 0.06581184 0.053246908 -0.041110143 -0.081968896 0.05186455 -0.06686507 -0.02888653
-0.022242717 0.034618344 -0.016291253 -0.033989776 0.058584154 0.028896105 0.022326462 -0.0045698993
0.018062187 -0.0017717722 0.0481218 0.006766026 0.06249111 0.018886441 -0.02004465 0.016774213
0.026040006 0.045492966 0.062228303 -0.06559812 -0.029784221 -0.009487642 0.050516818 -0.00066381786
0.0024383843 -0.062639326 -0.051994015 0.05303465 -0.026852338 0.023787227 0.026479347 -0.036330666
0.020122297 -0.00010435337 -0.011285884 -0.039510407 0.029949315 -0.041132487 -0.040767156 0.036015265
0.016051888 -0.05867381 -0.00023126733 -0.0062060407 0.03727574 -0.02623267 -0.043861534 0.029678833
0.017962964 -0.050747022 -0.021872431 0.00202544 0.036247667 0.010583556 -0.058506873 -0.032760236
0.01977777 -0.04440283 -0.013451691 -0.014297179 -0.027122285 0.0099338135 -0.07858212 -0.04146984
-0.05207706 -0.018359475 0.009771411 0.01873872 0.016412219 0.04615852 0.036479034 0.05955557
-0.07026506 -0.027240887 0.050233576 0.012873536 2.142787e-05 -0.056553166 0.0012934563 -0.010030786
-0.015848294 -0.011351666 0.013706554 -0.04284787 -0.010610697 0.03244696 -0.071853474 0.02055256
-0.07923034 -0.052548952 0.04869974 0.05463428 0.058400773 -0.05641178 -0.0045625726 -0.073527746
-0.057614084 0.005580483 -0.022026306 -0.01288432 -0.021691352 -0.028514449 -0.02790959 -0.04249548
-0.0441218 0.034512576 -0.07041529 0.060365353 0.028645074 0.049038388 -0.06797366 0.042162664
-0.047595203 -0.06127048 0.018878128 -0.05549869 -0.016203715 -0.053717867 0.050176118 -0.075356044

layers.3.bias f4 [200]
00000000: 6792 943d 8ffb e23c 5dfa 513e ddb5 423e
00000010: b558 f53d d352 14bb 8cee 083e 58ea 2a3e
00000020: df96 7a3c 82c3 633c 51e4 143e abb0 8dbd
00000030: 231a 1c3b a63d 483e ad7f 31bd 18d8 ea3d
00000040: e534 08bb 894e 343d 1b96 bb3d b84c 773d
00000050: 27c2 253e 8dbc e13d 64e0 14bd 9399 433d
00000060: 34c4 6dbd 1785 d53d f69c 1d3c f31d 533d
00000070: f2be ba3d 8149 d6bd 606a 5fbd f5ef 76bd
00000080: 3a03 d43a 3d3d 2a3d d124 d63c d382 06bd
00000090: 1441 fb3d 770d 20bd 5209 a1bd 9ad1 333e
000000a0: 39a0 e23d 221e dc3b f103 283e 8053 4e3e
000000b0: 8654 803a 4850 d73d aeac 343e 6f33 c5bb
000000c0: 3929 823a b20e 9b3d e604 a5bd 98c9 df3d
000000d0: 00db 65bd 7ec5 2b3e 2c4d 873d 69d0 223b
000000e0: 235b 40bd e462 2a3e 55a7 b3bc 24dd 47bd
000000f0: 676a 9dbc f626 21be 1465 74bb 5e7b 9cbd
00000100: ee87 973d 6e15 323c 939a 4b3e d3bc 123d
00000110: c284 033c 8a39 3c3e 1235 6e3d 649c 61bb
00000120: e102 8b3d 5241 cf3d 74ee 6abd eee5 f2bc
00000130: 57c9 883d d839 973d 06c6 413e c1d2 ccbc
00000140: 8bc0 a33d a18a 133e 0974 5c3d 95dd bc3d
00000150: 9d13 6d3c eb26 f23c ed55 063e 2201 043d
00000160: 07aa 3dbd 9378 233e ad83 4dbd 9b45 fabb
00000170: 042e da3d 7b97 183e 5e47 4a3d ddac 1cbd
00000180: 8d05 c43d a56f 253e df39 9e3d f874 013d
00000190: 664b 3e3e 462c 4c3a 1238 533e 627c 98ba
000001a0: 5bc1 b1bd 3010 e13d 90a4 573e 0707 97bd
000001b0: aaea 333d 5509 34bc 1853 5dbd 34d7 fb3c
000001c0: 5797 833c b45d 8f3d 8fdf 473e 804c 623d
000001d0: 4a0b a03c e6de 5b3d 16ba e53d d0e1 4ebd
000001e0: a25f 523d 0a1b 203e 62c7 1abd 53d6 a23d
000001f0: 5f74 053d 7082 453e 0af8 e7bd 97bc da3d
00000200: 0f48 dc3d 9490 683e 796a 2dbd 70d6 1a3d
00000210: c206 f43d 02b3 2b3d 239e 8ebd e6cf 76bd
00000220: d8b7 0e3d 28c5 043e ae47 9e3b b111 413e
00000230: 1983 a53c 71c2 abbd 8341 413e cf40 943d
00000240: 2d54 d63d 0a6f 2bbd 3eef 7fbd cca0 0f3e
00000250: b128 a73d 7531 5c3e b157 0d3e b9dd 5fbd
00000260: be33 4bbd 5c9c 4b3e 34c7 4c3e 4973 a33d
00000270: 092d 903d d4f3 fd3c d1d5 9dbd 4c7a dc3d
00000280: e160 a8bc 1288 e93d 16cd 7dbd df44 803d
00000290: e642 303e 1d74 df3a e3bc 673d 93fe c93d
000002a0: 94af 503d 11aa 263e 4509 1d3e 3b5f f93c
000002b0: 5e7c 79bd ef16 073e 5d6b d83d 4454 7ebd
000002c0: 5869 fe3d bd00 6dbc b640 80bd 4770 833d
000002d0: de73 e33d 434f 3b3d 16ea 0b3e 666f 3e3e
000002e0: 8663 8e3d 088f 8bbd daa2 de3d 3c25 8dbd
000002f0: f66f 5abd 2b79 193e e7b4 233e f291 663d
00000300: ecb0 6a3d cc7b 3d3d b05e 593d 20de e73d
00000310: 18ff 013e f3a2 423e 460b d9bc 79bd 4e3e
0.072544865 0.027707843 0.20505662 0.19014688 0.1197981 -0.0022632375 0.13372248 0.16690958
0.0152947595 0.013901593 0.14540221 -0.06918462 0.002381929 0.19554767 -0.04333465 0.11466998
-0.002078348 0.04402021 0.0915949 0.0603759 0.16187344 0.11022291 -0.036346808 0.04775388
-0.058048442 0.104257755 0.009619942 0.051542234 0.09118451 -0.104632385 -0.054544806 -0.060287435
0.0016175278 0.041562308 0.026140602 -0.032839607 0.12268272 -0.03907534 -0.07863106 0.17560425
0.11065716 0.0067174593 0.16407754 0.2014904 0.0009790815 0.10513359 0.17643997 -0.0060180943
0.0009930498 0.07571162 -0.08057575 0.10927123 -0.056117058 0.16774556 0.06606516 0.002484346
-0.046961915 0.16639286 -0.021930376 -0.04879488 -0.019215776 -0.15737519 -0.0037291693 -0.07640718
0.073989734 0.010869367 0.19883184 0.035824608 0.008027257 0.18381324 0.05815608 -0.0034425491
0.067876585 0.10119881 -0.057356313 -0.029650655 0.066790275 0.0738408 0.18923196 -0.025002839
0.07995709 0.14408351 0.053821597 0.09221951 0.014470008 0.029559573 0.13118716 0.032227643
-0.04630473 0.15963964 -0.050174404 -0.007637692 0.10653308 0.14901535 0.049384467 -0.038250793
0.09571371 0.1615587 0.07725882 0.03160569 0.1858345 0.00077885797 0.20626858 -0.0011633749
-0.08679458 0.10989416 0.2105887 -0.07374387 0.043924965 -0.010988553 -0.054034323 0.030742265
0.016063375 0.07000294 0.19518875 0.055248737 0.019536633 0.05367937 0.11217134 -0.05050832
0.051360734 0.15635315 -0.037787803 0.07951035 0.032581683 0.19288039 -0.113266066 0.10680502
0.107559316 0.22711402 -0.04233787 0.03780216 0.119153515 0.041918762 -0.06963756 -0.06025686
0.034843296 0.12965834 0.004830322 0.18854405 0.020204114 -0.08386696 0.18872647 0.07238924
0.10465274 -0.041853942 -0.06248402 0.14026183 0.08162058 0.21503241 0.13802983 -0.05465481
-0.049609892 0.19883865 0.19997865 0.07980973 0.0703984 0.031000055 -0.07706798 0.10765514
-0.020554008 0.114029065 -0.061963163 0.06263136 0.1721302 0.0017048154 0.05657662 0.09863009
0.050948694 0.16275813 0.15335567 0.030440917 -0.06090962 0.13192342 0.10567353 -0.06209208
0.124224365 -0.014465508 -0.06262343 0.064178996 0.11106084 0.045729887 0.13663515 0.18597183
0.06952576 -0.068143904 0.10870905 -0.068918675 -0.05332943 0.14987628 0.15986978 0.056291528
0.057297632 0.04626064 0.053068817 0.11321664 0.12694967 0.19007473 -0.026494633 0.20189466

layers.4.weight f4 [1, 200]
00000000: 95e9 473c f2a7 08bd c245 423d 07a0 293d
00000010: 8a24 8f3d 7368 9cbc 3ec1 0b3d 44e0 703d
00000020: 1773 383d eb5e 0abd e44f 393d c0b6 1dbd
00000030: 6fa5 8b3b 2f9a c93c 1a03 3bbd 6f4b 013d
00000040: ebbb 2ebd 9fd2 98bc 97a1 063d 4e9c fabc
00000050: 7ec4 5b3d 1578 3f3d b1c9 49bd a670 27bd
00000060: d070 19bd 1d13 033d d87d 45bd a84b 0ebc
00000070: 230b 313d b71f 5ebb f4bf 97bc fc4d 09bd
00000080: f2ea a3bc f5ef 5abd 878a fabc 7e84 0ebd
00000090: 4ab8 073d 1b56 ee3c 3891 cabc ae4c 823d
000000a0: 761e 953c 5670 4dbc 0d92 133d db69 e33c
000000b0: 05da 6bbd f3bd 163d d6b6 0e3d aa91 033a
000000c0: 524a 3cbc 8d12 1b3d c5f5 f3bc d246 113d
000000d0: f485 6cbd 439e 503d 1e7f 033d 2096 1dbd
000000e0: 1f92 99bc faf9 083d 6be3 acbc d034 57bd
000000f0: 936c 4bbd 4944 fabc 596a 07bd 4003 d6bc
00000100: 8e23 ef3c aa0c 07bd 4aec ce3c 6dad 8d3c
00000110: f0e6 d4bc 20c3 263d c48f 063c 3501 dbbc
00000120: c002 103d 475b d73c 1fc8 6abd 143e c13b
00000130: 9cdc 803d cac3 cc3c ace3 143d a51e 15bc
00000140: 1534 153d e905 3b3d fa18 613d 0d32 013d
00000150: 4eba d7bb 2ec3 5bbd dd2a 3b3d 839b 1fbd
00000160: 55d8 37bc fd27 093d 188c 3abb dd03 82bd
00000170: 90c3 163d fe69 0f3d 058a 30bd 505e 48bc
00000180: 490a 0f3d 15b8 973c 70c9 bb3c 84eb cfbc
00000190: 434b bc3c 8cf2 8cba 6aa3 0d3d 94fb 33bd
000001a0: 50f4 06bc 5680 e83c 1c69 b63c 2d3b 8cbb
000001b0: 275c 543c 7d85 06bd e8da adbc 9fa3 1dbd
000001c0: 7212 34bd f1c9 333d 03c8 4f3d e23a 32bd
000001d0: 9285 4ebc b2fb 4c3d 6508 3d3d 71ca 0f3d
000001e0: 2b21 3a3d 080f 623d 387b 65bd 990e 803d
000001f0: 8677 853d bfbe 4d3d 608b 6fbc 994b 653d
00000200: 3caa 323d f1bf c13c 0f54 c7bc 9641 2cbb
00000210: 935c 3c3d 1d9d f13c 425c 6ebd 2909 8bbc
00000220: ed91 b6bc 44c0 4c3d 5087 5839 e290 2c3d
00000230: 40dd ebbb f230 4bbd 44f6 da3c c171 ee3c
00000240: aed6 733d 8bad 05bd dec6 43bd 3aec 3b3d
00000250: 0b93 593d f89d fd3c fd04 983c 1128 4fbd
00000260: 20af 0f3c 4755 8c3c 5de4 2d3d a139 a63c
00000270: b6cc 783d 32ef 6fbb 146d 13bd 2700 1d3d
00000280: e441 34bd 2ca8 bd3c 632d 12bd 4824 d23c
00000290: d250 803d 9617 80bc 3642 4abd e034 883d
000002a0: 159a 36bd 6e00 843d 6317 6e3d 536c df3a
000002b0: e222 89bc 9381 063d 9389 de3c 063b 57bd
000002c0: 488a 5f3d 78a3 2739 9c1e b7bc 7ec9 2c3d
000002d0: 455f 563d f046 d0bc cc7c c13c a5b5 7f3d
000002e0: 709d 643d f024 25bd cac3 123d 4aa4 80bd
000002f0: 7a4a 39bc fd91 213d 5707 833c 466c 37bd
00000300: f150 173c ef09 49bd 8d88 6abb 0a6d f13c
00000310: 0732 b33c d2f4 2c3d c0ef 0abd 587c e13c
0.012201686 -0.03336329 0.047429807 0.04141238 0.06989391 -0.019092774 0.034119837 0.058807626
0.045031633 -0.033781927 0.045242205 -0.038504362 0.0042616646 0.024609653 -0.045657255 0.03156608
-0.04265968 -0.01865512 0.032868948 -0.03059211 0.053654186 0.04674538 -0.049264614 -0.040878914
-0.037461102 0.03200065 -0.048215717 -0.00868503 0.04322351 -0.0033893415 -0.018524148 -0.033521637
-0.020009492 -0.053451497 -0.030583633 -0.034794323 0.033134736 0.029093793 -0.024727449 0.06362282
0.018203001 -0.01253899 0.036027957 0.027760437 -0.057580967 0.036802243 0.034842335 0.0005018959
-0.011492329 0.03785949 -0.029780278 0.03546793 -0.057744935 0.05093218 0.03210365 -0.03847325
-0.018746434 0.03344152 -0.021104535 -0.0525406 -0.04966409 -0.030550139 -0.033060405 -0.026124597
0.029191758 -0.03297106 0.025259156 0.01729461 -0.025989026 0.04071343 0.008212987 -0.026733974
0.035158873 0.026288642 -0.057319757 0.005897293 0.06292078 0.024995703 0.036349937 -0.0091015445
0.036426622 0.045659933 0.05495546 0.031541873 -0.0065834885 -0.053652935 0.045695174 -0.038966667
-0.011221011 0.0334854 -0.002846485 -0.06348393 0.036807597 0.03501319 -0.043100376 -0.012229517
0.034921918 0.018520394 0.022923201 -0.025380857 0.022985106 -0.0010753437 0.034579672 -0.043941095
-0.00823696 0.028381508 0.022266917 -0.0042795152 0.012961424 -0.032842148 -0.021222547 -0.03848612
-0.043962903 0.04389376 0.050727855 -0.043513186 -0.012605088 0.050044723 0.046150584 0.035105173
0.045441788 0.055190116 -0.056025714 0.06252784 0.06516938 0.050230738 -0.014620632 0.0559803
0.04361938 0.023651095 -0.024332074 -0.002628421 0.045986723 0.029493863 -0.058193453 -0.016972141
-0.02228638 0.049988046 0.00020649773 0.04213036 -0.007198006 -0.049607225 0.026728757 0.029106976
0.059530906 -0.032636207 -0.047797076 0.04587958 0.053118747 0.030959114 0.018557066 -0.05057532
0.00876978 0.017130507 0.042454112 0.020291151 0.060742103 -0.0036611077 -0.035992697 0.038330223
-0.04400815 0.02315148 -0.035687815 0.025652066 0.06265415 -0.015636247 -0.04937955 0.0665071
-0.044580538 0.064453945 0.058127772 0.0017045833 -0.016740266 0.032838415 0.02716521 -0.052546524
0.054575235 0.00015987258 -0.022353463 0.042184345 0.05233695 -0.02542445 0.023619078 0.06242909
0.055814207 -0.04031843 0.03583125 -0.06281336 -0.0113092605 0.039445866 0.01599471 -0.044780992
0.0092356065 -0.04908174 -0.0035786957 0.02947094 0.02187444 0.042225666 -0.03392005 0.027525112
